…
Test Accuracy of Angry: 100% ( 9/ 9)
Test Accuracy of Disgust: 100% ( 6/ 6)
Test Accuracy of  Fear: 100% ( 4/ 4)
Test Accuracy of Happy: 70% ( 7/10)
Test Accuracy of   Sad: 75% ( 3/ 4)
Test Accuracy of Surprise: 83% ( 5/ 6)
Test Accuracy of Neutral: 100% ( 4/ 4)

Test Accuracy (Overall): 88% (38/43)
<Figure size 432x288 with 0 Axes>


------------------------------------------------------------------


----------------------------------------------------------------
        Layer (type)               Output Shape         Param #
================================================================
            Conv2d-1           [-1, 16, 48, 48]             160
       BatchNorm2d-2           [-1, 16, 48, 48]              32
            Conv2d-3           [-1, 32, 24, 24]           4,640
       BatchNorm2d-4           [-1, 32, 24, 24]              64
            Conv2d-5           [-1, 64, 12, 12]          18,496
       BatchNorm2d-6           [-1, 64, 12, 12]             128
            Conv2d-7             [-1, 64, 6, 6]          36,928
       BatchNorm2d-8             [-1, 64, 6, 6]             128
           Dropout-9                  [-1, 576]               0
           Linear-10                  [-1, 256]         147,712
          Dropout-11                  [-1, 256]               0
           Linear-12                    [-1, 7]           1,799
================================================================
Total params: 210,087
Trainable params: 210,087
Non-trainable params: 0
----------------------------------------------------------------
Input size (MB): 0.01
Forward/backward pass size (MB): 1.03
Params size (MB): 0.80
Estimated Total Size (MB): 1.84
----------------------------------------------------------------
Adam (
Parameter Group 0
…
