…
Test Loss: 1.042235

Test Accuracy of Angry: 46% (1872/3995)
Test Accuracy of Disgust:  0% ( 0/436)
Test Accuracy of  Fear: 17% (718/4097)
Test Accuracy of Happy: 83% (6047/7215)
Test Accuracy of   Sad: 50% (2457/4830)
Test Accuracy of Surprise: 87% (2782/3171)
Test Accuracy of Neutral: 70% (3519/4965)

Test Accuracy (Overall): 60% (17395/28709)
<Figure size 432x288 with 0 Axes>

----------------------------------------------------------------
        Layer (type)               Output Shape         Param #
================================================================
            Conv2d-1           [-1, 16, 36, 36]             160
       BatchNorm2d-2           [-1, 16, 36, 36]              32
            Conv2d-3           [-1, 32, 18, 18]           4,640
       BatchNorm2d-4           [-1, 32, 18, 18]              64
            Conv2d-5             [-1, 64, 9, 9]          18,496
       BatchNorm2d-6             [-1, 64, 9, 9]             128
            Conv2d-7             [-1, 64, 4, 4]          36,928
       BatchNorm2d-8             [-1, 64, 4, 4]             128
           Dropout-9                  [-1, 256]               0
           Linear-10                  [-1, 256]          65,792
          Dropout-11                  [-1, 256]               0
           Linear-12                    [-1, 7]           1,799
================================================================
Total params: 128,167
Trainable params: 128,167
Non-trainable params: 0
----------------------------------------------------------------
Input size (MB): 0.00
Forward/backward pass size (MB): 0.58
Params size (MB): 0.49
Estimated Total Size (MB): 1.07
----------------------------------------------------------------

Adam (
Parameter Group 0
…
